cpu-bind=MASK - rishon3, task  0  0 [55902]: mask 0x200000002 set
cpu-bind=MASK - rishon3, task  0  0 [55902]: mask 0x200000002 set
*** SLURM BATCH JOB 'test_job' STARTING ***
*** Activating environment cs236605-hw ***
File /home/natsala/.pytorch-datasets/lfw-bush.zip exists, skipping download.
Extracting /home/natsala/.pytorch-datasets/lfw-bush.zip...
Extracted 531 to /home/natsala/.pytorch-datasets/lfw/George_W_Bush
VAE(
  (features_encoder): EncoderCNN(
    (cnn): Sequential(
      (0): Conv2d(3, 64, kernel_size=(5, 5), stride=(2, 2), padding=(2, 2))
      (1): BatchNorm2d(64, eps=1e-05, momentum=0.1, affine=True, track_running_stats=True)
      (2): ReLU()
      (3): Conv2d(64, 128, kernel_size=(5, 5), stride=(2, 2), padding=(2, 2))
      (4): BatchNorm2d(128, eps=1e-05, momentum=0.1, affine=True, track_running_stats=True)
      (5): ReLU()
      (6): Conv2d(128, 256, kernel_size=(5, 5), stride=(2, 2), padding=(2, 2))
      (7): BatchNorm2d(256, eps=1e-05, momentum=0.1, affine=True, track_running_stats=True)
      (8): ReLU()
    )
  )
  (features_decoder): DecoderCNN(
    (cnn): Sequential(
      (0): ConvTranspose2d(256, 256, kernel_size=(5, 5), stride=(2, 2), padding=(2, 2), output_padding=(1, 1))
      (1): BatchNorm2d(256, eps=1e-05, momentum=0.1, affine=True, track_running_stats=True)
      (2): ReLU()
      (3): ConvTranspose2d(256, 128, kernel_size=(5, 5), stride=(2, 2), padding=(2, 2), output_padding=(1, 1))
      (4): BatchNorm2d(128, eps=1e-05, momentum=0.1, affine=True, track_running_stats=True)
      (5): ReLU()
      (6): ConvTranspose2d(128, 32, kernel_size=(5, 5), stride=(2, 2), padding=(2, 2), output_padding=(1, 1))
      (7): BatchNorm2d(32, eps=1e-05, momentum=0.1, affine=True, track_running_stats=True)
      (8): ReLU()
      (9): ConvTranspose2d(32, 3, kernel_size=(5, 5), stride=(1, 1), padding=(2, 2))
    )
  )
  (Utransformation): Linear(in_features=16384, out_features=32, bias=True)
  (Stransformation): Linear(in_features=16384, out_features=32, bias=True)
  (Dectransformation): Linear(in_features=32, out_features=16384, bias=True)
)
train_batch:   0%|          | 0/30 [00:00<?, ?it/s]THCudaCheck FAIL file=/opt/conda/conda-bld/pytorch_1535493744281/work/aten/src/THC/THCGeneral.cpp line=663 error=11 : invalid argument
train_batch (0.626):   0%|          | 0/30 [00:00<?, ?it/s]train_batch (0.626):   3%|▎         | 1/30 [00:00<00:03,  8.56it/s]train_batch (10.805):   3%|▎       
…
test_batch:   0%|          | 0/4 [00:00<?, ?it/s]test_batch (0.492):   0%|          | 0/4 [00:00<?, ?it/s]test_batch (0.319):  25%|██▌       | 1/4 [00:00<00:00,  6.23it/s]test_batch (0.319):  50%|█████     | 2/4 [00:00<00:00, 12.40it/s]test_batch (0.282):  50%|█████     | 2/4 [00:00<00:00, 12.40it/s]test_batch (0.659):  75%|███████▌  | 3/4 [00:00<00:00, 12.40it/s]test_batch (0.659): 100%|██████████| 4/4 [00:00<00:00, 13.74it/s]test_batch (Avg. Loss 0.438, Accuracy 24.4): 100%|██████████| 4/4 [00:00<00:00, 13.74it/s]
*** Output file ./results/Res1/FINAL_ARCHlr_0.0008s_0.8z_32.json written
File /home/natsala/.pytorch-datasets/lfw-bush.zip exists, skipping download.
Extracting /home/natsala/.pytorch-datasets/lfw-bush.zip...
Extracted 531 to /home/natsala/.pytorch-datasets/lfw/George_W_Bush
VAE(
  (features_encoder): EncoderCNN(
    (cnn): Sequential(
      (0): Conv2d(3, 64, kernel_size=(5, 5), stride=(2, 2), padding=(2, 2))
      (1): BatchNorm2d(64, eps=1e-05, momentum=0.1, affine=True, track_running_stats=True)
      (2): ReLU()
      (3): Conv2d(64, 128, kernel_size=(5, 5), stride=(2, 2), padding=(2, 2))
      (4): BatchNorm2d(128, eps=1e-05, momentum=0.1, affine=True, track_running_stats=True)
      (5): ReLU()
      (6): Conv2d(128, 256, kernel_size=(5, 5), stride=(2, 2), padding=(2, 2))
      (7): BatchNorm2d(256, eps=1e-05, momentum=0.1, affine=True, track_running_stats=True)
      (8): ReLU()
    )
  )
  (features_decoder): DecoderCNN(
    (cnn): Sequential(
      (0): ConvTranspose2d(256, 256, kernel_size=(5, 5), stride=(2, 2), padding=(2, 2), output_padding=(1, 1))
      (1): BatchNorm2d(256, eps=1e-05, momentum=0.1, affine=True, track_running_stats=True)
      (2): ReLU()
      (3): ConvTranspose2d(256, 128, kernel_size=(5, 5), stride=(2, 2), padding=(2, 2), output_padding=(1, 1))
      (4): BatchNorm2d(128, eps=1e-05, momentum=0.1, affine=True, track_running_stats=True)
      (5): ReLU()
      (6): ConvTranspose2d(128, 32, kernel_size=(5, 5), stride=(2, 2), padding=(2, 2), output_padding=(1, 1))
      (7): BatchNorm2d(32, eps=1e-05, momentum=0.1, affine=True, track_running_stats=True)
      (8): ReLU()
      (9): ConvTranspose2d(32, 3, kernel_size=(5, 5), stride=(1, 1), padding=(2, 2))
    )
  )
  (Utransformation): Linear(in_features=16384, out_features=64, bias=True)
  (Stransformation): Linear(in_features=16384, out_features=64, bias=True)
  (Dectransformation): Linear(in_features=64, out_features=16384, bias=True)
)
train_batch:   0%|          | 0/30 [00:00<?, ?it/s]train_batch (0.547):   0%|          | 0/30 [00:00<?, ?it/s]train_batch (0.547):   3%|▎         | 1/30 [00:00<00:04,  7.15it/s]train_batch (8.577):   3%|▎         | 1/30 [00:00<00:04,  7.15it/s]train_batch (8.577):   7%|▋         | 2/30 [00:00<00:03,  7.66it/s]train_batch (1.369):   7%|▋       
…
test_batch:   0%|          | 0/4 [00:00<?, ?it/s]test_batch (0.438):   0%|          | 0/4 [00:00<?, ?it/s]test_batch (0.617):  25%|██▌       | 1/4 [00:00<00:00,  6.31it/s]test_batch (0.617):  50%|█████     | 2/4 [00:00<00:00, 12.55it/s]test_batch (0.236):  50%|█████     | 2/4 [00:00<00:00, 12.55it/s]test_batch (0.588):  75%|███████▌  | 3/4 [00:00<00:00, 12.55it/s]test_batch (0.588): 100%|██████████| 4/4 [00:00<00:00, 13.97it/s]test_batch (Avg. Loss 0.470, Accuracy 24.3): 100%|██████████| 4/4 [00:00<00:00, 13.97it/s]
*** Output file ./results/Res1/FINAL_ARCHlr_0.0008s_0.8z_64.json written
File /home/natsala/.pytorch-datasets/lfw-bush.zip exists, skipping download.
Extracting /home/natsala/.pytorch-datasets/lfw-bush.zip...
Extracted 531 to /home/natsala/.pytorch-datasets/lfw/George_W_Bush
VAE(
  (features_encoder): EncoderCNN(
    (cnn): Sequential(
      (0): Conv2d(3, 64, kernel_size=(5, 5), stride=(2, 2), padding=(2, 2))
      (1): BatchNorm2d(64, eps=1e-05, momentum=0.1, affine=True, track_running_stats=True)
      (2): ReLU()
      (3): Conv2d(64, 128, kernel_size=(5, 5), stride=(2, 2), padding=(2, 2))
      (4): BatchNorm2d(128, eps=1e-05, momentum=0.1, affine=True, track_running_stats=True)
      (5): ReLU()
      (6): Conv2d(128, 256, kernel_size=(5, 5), stride=(2, 2), padding=(2, 2))
      (7): BatchNorm2d(256, eps=1e-05, momentum=0.1, affine=True, track_running_stats=True)
      (8): ReLU()
    )
  )
  (features_decoder): DecoderCNN(
    (cnn): Sequential(
      (0): ConvTranspose2d(256, 256, kernel_size=(5, 5), stride=(2, 2), padding=(2, 2), output_padding=(1, 1))
      (1): BatchNorm2d(256, eps=1e-05, momentum=0.1, affine=True, track_running_stats=True)
      (2): ReLU()
      (3): ConvTranspose2d(256, 128, kernel_size=(5, 5), stride=(2, 2), padding=(2, 2), output_padding=(1, 1))
      (4): BatchNorm2d(128, eps=1e-05, momentum=0.1, affine=True, track_running_stats=True)
      (5): ReLU()
      (6): ConvTranspose2d(128, 32, kernel_size=(5, 5), stride=(2, 2), padding=(2, 2), output_padding=(1, 1))
      (7): BatchNorm2d(32, eps=1e-05, momentum=0.1, affine=True, track_running_stats=True)
      (8): ReLU()
      (9): ConvTranspose2d(32, 3, kernel_size=(5, 5), stride=(1, 1), padding=(2, 2))
    )
  )
  (Utransformation): Linear(in_features=16384, out_features=128, bias=True)
  (Stransformation): Linear(in_features=16384, out_features=128, bias=True)
  (Dectransformation): Linear(in_features=128, out_features=16384, bias=True)
)
train_batch:   0%|          | 0/30 [00:00<?, ?it/s]train_batch (0.610):   0%|          | 0/30 [00:00<?, ?it/s]train_batch (0.610):   3%|▎         | 1/30 [00:00<00:03,  7.43it/s]train_batch (8.506):   3%|▎         | 1/30 [00:00<00:03,  7.43it/s]train_batch (8.506):   7%|▋         | 2/30 [00:00<00:03,  7.51it/s]train_batch (1.246):   7%|▋      
…
