cpu-bind=MASK - rishon3, task  0  0 [54051]: mask 0x100000001 set
cpu-bind=MASK - rishon3, task  0  0 [54051]: mask 0x100000001 set
*** SLURM BATCH JOB 'test_job' STARTING ***
*** Activating environment cs236605-hw ***
File /home/natsala/.pytorch-datasets/lfw-bush.zip exists, skipping download.
Extracting /home/natsala/.pytorch-datasets/lfw-bush.zip...
Extracted 531 to /home/natsala/.pytorch-datasets/lfw/George_W_Bush
VAE(
  (features_encoder): EncoderCNN(
    (cnn): Sequential(
      (0): Conv2d(3, 64, kernel_size=(5, 5), stride=(1, 1), padding=(2, 2))
      (1): MaxPool2d(kernel_size=2, stride=2, padding=0, dilation=1, ceil_mode=False)
      (2): BatchNorm2d(64, eps=1e-05, momentum=0.1, affine=True, track_running_stats=True)
      (3): ReLU()
      (4): Conv2d(64, 128, kernel_size=(5, 5), stride=(1, 1), padding=(2, 2))
      (5): MaxPool2d(kernel_size=2, stride=2, padding=0, dilation=1, ceil_mode=False)
      (6): BatchNorm2d(128, eps=1e-05, momentum=0.1, affine=True, track_running_stats=True)
      (7): ReLU()
      (8): Conv2d(128, 256, kernel_size=(5, 5), stride=(1, 1), padding=(2, 2))
      (9): MaxPool2d(kernel_size=2, stride=2, padding=0, dilation=1, ceil_mode=False)
      (10): BatchNorm2d(256, eps=1e-05, momentum=0.1, affine=True, track_running_stats=True)
      (11): ReLU()
    )
  )
  (features_decoder): DecoderCNN(
    (cnn): Sequential(
      (0): ConvTranspose2d(256, 256, kernel_size=(5, 5), stride=(1, 1), padding=(2, 2))
      (1): Upsample(scale_factor=2, mode=bilinear)
      (2): BatchNorm2d(256, eps=1e-05, momentum=0.1, affine=True, track_running_stats=True)
      (3): ReLU()
      (4): ConvTranspose2d(256, 128, kernel_size=(5, 5), stride=(1, 1), padding=(2, 2))
      (5): Upsample(scale_factor=2, mode=bilinear)
      (6): BatchNorm2d(128, eps=1e-05, momentum=0.1, affine=True, track_running_stats=True)
      (7): ReLU()
      (8): ConvTranspose2d(128, 32, kernel_size=(5, 5), stride=(1, 1), padding=(2, 2))
      (9): Upsample(scale_factor=2, mode=bilinear)
      (10): BatchNorm2d(32, eps=1e-05, momentum=0.1, affine=True, track_running_stats=True)
      (11): ReLU()
      (12): Conv2d(32, 3, kernel_size=(5, 5), stride=(1, 1), padding=(2, 2))
    )
  )
  (Utransformation): Linear(in_features=16384, out_features=128, bias=True)
  (Stransformation): Linear(in_features=16384, out_features=128, bias=True)
  (Dectransformation): Linear(in_features=128, out_features=16384, bias=True)
)
train_batch:   0%|          | 0/60 [00:00<?, ?it/s]THCudaCheck FAIL file=/opt/conda/conda-bld/pytorch_1535493744281/work/aten/src/THC/THCGeneral.cpp line=663 error=11 : invalid argument
train_batch (0.523):   0%|          | 0/60 [00:00<?, ?it/s]train_batch (0.523):   2%|▏         | 1/60 [00:00<00:10,  5.37it/s]train_batch (0.484):   2%|▏       
…
