cpu-bind=MASK - rishon3, task  0  0 [30104]: mask 0x200000002 set
cpu-bind=MASK - rishon3, task  0  0 [30104]: mask 0x200000002 set
*** SLURM BATCH JOB 'test_job' STARTING ***
*** Activating environment cs236605-hw ***
File /home/natsala/.pytorch-datasets/lfw-bush.zip exists, skipping download.
Extracting /home/natsala/.pytorch-datasets/lfw-bush.zip...
Extracted 531 to /home/natsala/.pytorch-datasets/lfw/George_W_Bush
VAE(
  (features_encoder): EncoderCNN(
    (cnn): Sequential(
      (0): Conv2d(3, 64, kernel_size=(5, 5), stride=(2, 2), padding=(2, 2))
      (1): BatchNorm2d(64, eps=1e-05, momentum=0.1, affine=True, track_running_stats=True)
      (2): LeakyReLU(negative_slope=0.01)
      (3): Conv2d(64, 128, kernel_size=(5, 5), stride=(2, 2), padding=(2, 2))
      (4): BatchNorm2d(128, eps=1e-05, momentum=0.1, affine=True, track_running_stats=True)
      (5): LeakyReLU(negative_slope=0.01)
      (6): Conv2d(128, 256, kernel_size=(5, 5), stride=(2, 2), padding=(2, 2))
      (7): BatchNorm2d(256, eps=1e-05, momentum=0.1, affine=True, track_running_stats=True)
      (8): LeakyReLU(negative_slope=0.01)
    )
  )
  (features_decoder): DecoderCNN(
    (cnn): Sequential(
      (0): LeakyReLU(negative_slope=0.01)
      (1): InstanceNorm2d(256, eps=1e-05, momentum=0.1, affine=False, track_running_stats=False)
      (2): ConvTranspose2d(256, 256, kernel_size=(5, 5), stride=(2, 2), padding=(2, 2), output_padding=(1, 1))
      (3): LeakyReLU(negative_slope=0.01)
      (4): InstanceNorm2d(256, eps=1e-05, momentum=0.1, affine=False, track_running_stats=False)
      (5): ConvTranspose2d(256, 128, kernel_size=(5, 5), stride=(2, 2), padding=(2, 2), output_padding=(1, 1))
      (6): LeakyReLU(negative_slope=0.01)
      (7): InstanceNorm2d(128, eps=1e-05, momentum=0.1, affine=False, track_running_stats=False)
      (8): ConvTranspose2d(128, 32, kernel_size=(5, 5), stride=(2, 2), padding=(2, 2), output_padding=(1, 1))
      (9): ConvTranspose2d(32, 3, kernel_size=(5, 5), stride=(1, 1), padding=(2, 2))
    )
  )
  (Utransformation): Linear(in_features=16384, out_features=64, bias=True)
  (Stransformation): Linear(in_features=16384, out_features=64, bias=True)
  (Dectransformation): Linear(in_features=64, out_features=16384, bias=True)
)
train_batch:   0%|          | 0/60 [00:00<?, ?it/s]THCudaCheck FAIL file=/opt/conda/conda-bld/pytorch_1535493744281/work/aten/src/THC/THCGeneral.cpp line=663 error=11 : invalid argument
train_batch (0.509):   0%|          | 0/60 [00:00<?, ?it/s]train_batch (2.469):   2%|▏         | 1/60 [00:00<00:08,  7.09it/s]train_batch (2.469):   3%|▎        
…
